…
Analizar los resultados obtenidos y completar el ensayo en ensayo_aprendizaje_federado.md, explicando:

Qué método de agregación obtuvo mejores resultados
Por qué este método funcionó mejor que los otros
Factores que influyeron en el rendimiento de cada método

Arquitectura del Modelo
El modelo utilizado es una Red Neuronal Convolucional (CNN) diseñada para el reconocimiento de dígitos manuscritos:
Model: "sequential"
_________________________________________________________________
 Layer (type)                Output Shape              Param #   
=================================================================
 conv2d (Conv2D)             (32, 28, 28, 32)          320       
                                                                 
 max_pooling2d (MaxPooling2D)  (32, 14, 14, 32)        0         
                                                                 
 conv2d_1 (Conv2D)           (32, 14, 14, 64)         18496      
                                                                 
 max_pooling2d_1 (MaxPooling2  (32, 7, 7, 64)         0         
 D)                                                              
                                                                 
 conv2d_2 (Conv2D)           (32, 7, 7, 128)          73856      
                                                                 
 max_pooling2d_2 (MaxPooling2  (32, 3, 3, 128)        0         
 D)                                                              
                                                                 
 flatten (Flatten)           (32, 1152)                0         
                                                                 
 dense (Dense)               (32, 256)                 295168     
                                                                 
 dropout (Dropout)           (32, 256)                 0         
                                                                 
 dense_1 (Dense)             (32, 10)                  2570      
                                                                 
=================================================================
Total params: 390410
Trainable params: 390410
Non-trainable params: 0
_________________________________________________________________
Métodos de Agregación
FedAvg (Federated Averaging)
Método original propuesto por Google que promedia los pesos de todos los modelos locales para crear un modelo global.
…
